models/ptb_save/ptb_save_aggressive1_kls1.00_warm10_0_0_783435.pt (torch_old, 773413 bytes, 14 tensors)

encoder.embed.weight f4 [1004, 50]
0	0xbdad5e28	-0.084652245
1	0x3d9b38bb	0.0757918
2	0xbc2acf30	-0.010425374
3	0x3d4c6776	0.049903356
4	0xbd69eba0	-0.057109475
5	0xbca30f0c	-0.019904636
6	0x3b8d96b0	0.004320942
7	0xbd9da12e	-0.07696758
8	0xbcca4448	-0.024690762
9	0xbd1dba5d	-0.038507808
10	0xbdc4a858	-0.096024215
11	0xbd382120	-0.044953465
12	0x3bdb5ce0	0.006694421
13	0x3d824db7	0.06362479
14	0x3d35ef82	0.044417866
15	0xb975b000	-0.00023430586
16	0x3cc43a98	0.02395372
17	0x3d0cad8e	0.034345202
18	0xbd1eeb3a	-0.03879855
19	0xbd6bb2cd	-0.057543565
20	0x3d93bc37	0.072136335
21	0xbc3b4a58	-0.011431299
22	0xbdc24188	-0.09485155
23	0xbd48d050	-0.049026787
24	0x3d96faab	0.0737203
25	0x3a309100	0.0006735474
26	0xbdaf0bba	-0.085471585
27	0xbdc756f2	-0.097333804
28	0x3ba7bcd0	0.0051189438
29	0x3d65135a	0.05592666
30	0xbd9bfa8a	-0.07616146
31	0x3b02eda0	0.0019978061
32	0x3d834ddd	0.064113356
33	0xbd3366b3	-0.043799113
34	0x3daf5153	0.08560433
35	0x3d8a92c1	0.06766272
36	0xbd9aea7d	-0.07564256
37	0x3c077830	0.008268401
38	0xbd10ad7c	-0.035321698
39	0xbd5e1133	-0.05421562
40	0x3da57f5f	0.08080935
41	0x3da9874b	0.08277758
42	0x3c203370	0.009777889
43	0xbcfd3874	-0.030910708
44	0xbda6c170	-0.08142364
45	0xbd1cf660	-0.0383209
46	0xbdb585fd	-0.08863447
47	0xbce78b78	-0.028264746
48	0x3cfb3674	0.030665614
49	0xbd8deb08	-0.06929594
50	0xbead5194	-0.33851302
51	0xbff48466	-1.9102905
52	0xbfeff11b	-1.8745455
53	0x3d1f47b8	0.038886756
54	0xbf9577a6	-1.1677139
55	0x3dd31c7d	0.10308168
56	0xc06d2a91	-3.705723
57	0xc001fdcb	-2.0311153
58	0xbf5093b5	-0.81475383
59	0xc03d55d9	-2.9583647
60	0xbdfde036	-0.123962805
61	0x3ea9e1ac	0.33179986
62	0xc07ea08f	-3.9785497
63	0x3f538e8d	0.8263939
64	0xbf7162ed	-0.94291574
65	0xbf90eccd	-1.1322266
66	0xbebf6356	-0.37380475
67	0xbf2125c2	-0.6294824
68	0x4057269c	3.3617315
69	0xbfd99710	-1.6999226
70	0xc0079f7c	-2.1191092
71	0x3f401ae3	0.75041026
72	0xbf44d5b6	-0.76888597
73	0x400093d3	2.0090225
74	0x3e23e745	0.16006191
75	0xbf5ea56b	-0.8697116
76	0xbf722a14	-0.94595456
77	0xbc80b2ed	-0.015710318
78	0x3dd3fda3	0.10351112
79	0x3dce75e1	0.10081077
80	0xbf3db662	-0.7410642
81	0xbf2a4ad9	-0.6652046
82	0x3fbef5eb	1.4918798
83	0xc00041c9	-2.0040152
84	0xbef43726	-0.47698325
85	0xbfc5141b	-1.5396761
86	0x40443358	3.0656338
87	0x3eae979b	0.3410004
88	0x40015b32	2.0211911
89	0xc02addda	-2.6697907
90	0x3fc706dd	1.554897
91	0xc00fa875	-2.2446568
92	0xbfffb4ba	-1.9977028
93	0xbe70243a	-0.2345132
94	0x3e614e29	0.22002472
95	0x3f1b71f4	0.60720754
96	0x3fabbd76	1.3417194
97	0xbf05e9e0	-0.5230999
98	0x3f46b465	0.7761901
99	0xbd65bdef	-0.056089338
100	0x3bbae11d	0.005703105
101	0xbc8facdc	-0.01753848
102	0x3b60b548	0.003428774
103	0xbbf81db8	-0.007571902
104	0x3ccef7a4	0.025264569
105	0x3c049160	0.008091301
106	0xbc59ed00	-0.013301134
107	0x3c963e97	0.018340392
108	0xbbfad66e	-0.0076549565
109	0xbc9feddf	-0.019522605
110	0xbbfa66ff	-0.0076416726
111	0xbc083d4e	-0.008315397
112	0xbc833507	-0.016016496
113	0xbc25266f	-0.010079964
114	0x3d7869d7	0.06064781
115	0xbc68bc18	-0.014205001
116	0xbc58dcf8	-0.013236277
117	0x3b8211fc	0.003969429
118	0x3bff32cd	0.0077880383
119	0x3c539add	0.01291534
120	0xbcdbd4c4	-0.026834853
121	0xbcf5a595	-0.029986182
122	0xbc4d7109	-0.012539157
123	0xbc95dee5	-0.018294761
124	0xbb307fe9	-0.002693171
125	0xbc589dbb	-0.0132212
126	0xbc5acf30	-0.013355061
127	0x3aadc7c1	0.0013258384
128	0xbbc93af2	-0.00614106
129	0xbc59b553	-0.01328786
130	0xbcf920bc	-0.030411117
131	0x3c01b1ef	0.007915958
132	0xbc4e546c	-0.01259337
133	0xbbf8bc52	-0.007590809
134	0x3c20ff45	0.009826486
135	0x3c828b3b	0.01593553
136	0xbca6ed01	-0.020376684
137	0x3ccd2f7e	0.02504706
138	0x3c385698	0.011251114
139	0xbcc5875b	-0.024112394
140	0xbc4e96af	-0.012609168
141	0x3cd0812c	0.025452219
142	0x3d0e1241	0.034685377
143	0xbc22ccd0	-0.009936526
144	0xbb4518f5	-0.003007469
145	0x3c8ec49e	0.017427739
146	0xbb3dbb49	-0.0028950742
147	0x3cad01a8	0.021118954
148	0x3c9b853b	0.018984428
149	0xb9bb3497	-0.00035706602
150	0x3d2ad8d2	0.041710682
151	0xbdc267f2	-0.09492482
152	0x3b12ad40	0.0022381097
153	0xbca609d8	-0.020268366
154	0x3d91159d	0.070842005
155	0x3cf8532c	0.030313097
156	0x3d6de142	0.05807615
157	0xbd54ab47	-0.051921155
158	0xbdb208f8	-0.08693117
159	0x3c8eb614	0.017420806
160	0x3bf2e520	0.0074125677
161	0xbd88135a	-0.06644316
162	0x3da0bdab	0.07848676
163	0x3cb955b4	0.022623874
164	0x3d8575cd	0.06516609
165	0x3d3a8ec2	0.0455463
166	0xbc5a95f0	-0.013341412
167	0xbd03b810	-0.032157958
168	0x3d2d6fe2	0.042343028
169	0xbdc891ea	-0.09793456
170	0x3c9b536c	0.018960677
171	0x3d6cddea	0.05782882
172	0xbd0f0ea6	-0.03492608
173	0xbda5312e	-0.08066021
174	0xbcd170d4	-0.025566496
175	0xba99a080	-0.0011720806
176	0xbc9f91e8	-0.019478753
177	0x3c4be510	0.0124447495
178	0xbd365f93	-0.04452474
179	0x3bb85160	0.005624935
180	0xbd828186	-0.06372361
181	0xbd0bcae6	-0.034129046
182	0x3cb9910c	0.022652172
183	0xbdbf0bcd	-0.09328423
184	0xbd931762	-0.07182194
185	0xbd6a760a	-0.057241477
186	0xbd467f9a	-0.048461534
187	0xbc964780	-0.01834464
188	0xbd9a494d	-0.07533512
189	0x3bbaf0a0	0.0057049543
190	0x3da45fd1	0.08026088
191	0xbd9c3236	-0.076267645
192	0x3c9ec2b4	0.019379951
193	0x3d91a031	0.07110632
194	0x3dc3d16b	0.09561428
195	0xbb961dd0	-0.0045811906
196	0x3da48331	0.08032835
197	0x3c32b5d8	0.010907613
198	0x3d0a228a	0.033724345
199	0xbd9bf836	-0.07615702
200	0x3dc352e1	0.09537292
201	0x3d2d8d51	0.042371098
202	0xbd37ec88	-0.04490331
203	0x3dfc498c	0.123187155
204	0xbcdeb30d	-0.027184987
205	0xbe558905	-0.2085305
206	0xbe674269	-0.22583927
207	0x3e464c6e	0.19365093
208	0xbc108748	-0.008821316
209	0xbd7a0faf	-0.061050113
210	0x3e65823c	0.22412962
211	0xbd821b06	-0.063528106
212	0xbe11d8c5	-0.14242847
213	0xbe8cf18e	-0.27528042
214	0xbc9bdcc2	-0.019026164
215	0xbe4aaed9	-0.19793262
216	0xba663203	-0.0008781256
217	0xbe3cf051	-0.18451048
218	0xbcdd9b00	-0.027051449
219	0xbd70ba2c	-0.058771297
220	0xbda011ca	-0.07815893
221	0xbd39c32f	-0.045352157
222	0x3e7927b7	0.24331556
223	0x3cee5bef	0.029096572
224	0xbe91090b	-0.28327212
225	0x3d9e333b	0.07724615
226	0x3a81ed72	0.0009912683
227	0x3ccce38a	0.025010843
228	0x3d37d905	0.0448847
229	0x3c54a9be	0.012979923
230	0xbd817e6e	-0.06322943
231	0xbc39524b	-0.011311124
232	0xbce0d886	-0.027446996
233	0xbe160cf5	-0.1465338
234	0xbc152d19	-0.00910499
235	0xbe9398c1	-0.2882748
236	0x3d8ed6e9	0.069745846
237	0x3d40c214	0.047060087
238	0xbdadf908	-0.084947646
239	0xbd4d9775	-0.05019327
240	0x3b295714	0.0025839256
241	0xbc53f34c	-0.012936424
242	0xbdfd8bd3	-0.12380185
243	0xbe4ec675	-0.20192893
244	0xbd08863f	-0.033331152
245	0x3deb1dc3	0.11480286
246	0x3ca6ed80	0.02037692
247	0x3dd51731	0.10404814
248	0xbe330fbd	-0.17486472
249	0xbbf0f584	-0.0073534865
250	0xbef36a34	-0.47541964
251	0x3e9f7899	0.31146696
252	0x3e830242	0.2558766
253	0xbdd368d0	-0.10322726
254	0x3eb5b665	0.35490718
255	0xbcaee9af	-0.021351663

encoder.lstm.weight_ih_l0 f4 [200, 50]
0	0x3e4ed756	0.20199332
1	0xbef79cbb	-0.48361763
2	0xbcaf2b60	-0.021382987
3	0xbeef27a4	-0.4670993
4	0xbe1e8954	-0.15482074
5	0x3f1cea08	0.61294603
6	0x3f0af2d3	0.5427677
7	0x3ebd5fd5	0.36987177
8	0x3e927435	0.28604284
9	0x3f0e794f	0.5565385
10	0x3e1be221	0.1522298
11	0x3ee40887	0.44537756
12	0x3d170bd7	0.036876526
13	0xbe5185ec	-0.20461243
14	0x3e496fc0	0.19671535
15	0x3eb981de	0.36231893
16	0x3f4a3590	0.7898798
17	0x3f301d23	0.6879446
18	0xbe216729	-0.15762009
19	0xbd032faa	-0.032027878
20	0x3dc6b360	0.09702182
21	0xbeb41716	-0.35173863
22	0xbe4e662e	-0.20156166
23	0xbe100129	-0.14062943
24	0x3dd880a8	0.10571414
25	0xbe84da45	-0.25947776
26	0xbf28f189	-0.65993553
27	0xbd062ad1	-0.032755677
28	0xbf564dbc	-0.83712363
29	0xbe9ef041	-0.31042674
30	0xbc3e1fc6	-0.011604255
31	0x3e1fcb91	0.15604998
32	0xbf03dfb9	-0.5151325
33	0xbe5cf9f6	-0.21579728
34	0xbe93bf41	-0.28856853
35	0x3efa0fd0	0.4884019
36	0xbe2bd3ae	-0.16779968
37	0xbf008d9e	-0.5021609
38	0xbf38cc98	-0.72187185
39	0x3ea3ba93	0.31978282
40	0xbea60ecb	-0.3243316
41	0x3ebfd4a7	0.37466928
42	0x3dc6f00e	0.097137555
43	0x3e6c2be0	0.23063612
44	0xbcfe80ee	-0.031067338
45	0x3ead00c9	0.33789662
46	0x3ca33aa4	0.019925423
47	0xbf39f0a0	-0.7263279
48	0x3e8213a1	0.254056
49	0xbf068701	-0.5254975
50	0xbdea22b8	-0.11432403
51	0xbdcfccf0	-0.101465106
52	0xbef47ce7	-0.47751543
53	0x3e79732b	0.2436034
54	0xbe9e3566	-0.30900115
55	0xbe0bb534	-0.13643342
56	0xbe70511d	-0.23468442
57	0xbba8eaf0	-0.00515496
58	0x3dcea34f	0.100897424
59	0x3df50950	0.11964667
60	0x3e825a17	0.25459358
61	0x3e2d49f3	0.1692274
62	0xbe8a3380	-0.26992416
63	0xbe15a4c9	-0.14613642
64	0xbf14d512	-0.5813762
65	0xbe5ae161	-0.21375038
66	0x3d1edb3f	0.038783308
67	0xbeb53701	-0.35393527
68	0x3d60e133	0.054902267
69	0xbea00e85	-0.31261078
70	0x3e3e2436	0.18568501
71	0x3ef051e1	0.4693747
72	0x3eead1aa	0.45863086
73	0x3d31b0e3	0.043381583
74	0xbe0c806c	-0.13720864
75	0x3e5b0daa	0.21391931
76	0xbc5a8f9b	-0.013339902
77	0xbbbc86c5	-0.0057533705
78	0xbb9b56e7	-0.004740584
79	0xbe53616a	-0.2064263
80	0x3ea7ed00	0.32798004
81	0xbdc02531	-0.09382094
82	0x3e2f9b95	0.17149194
83	0x3e5a9dac	0.2134921
84	0x3e9b9817	0.30389473
85	0xbe9ae3f5	-0.30252042
86	0x3ee1b637	0.4408433
87	0xba157d97	-0.0005702613
88	0x3dcbe11a	0.09955044
89	0xbdec1fc3	-0.115294956
90	0x3eb72031	0.35766748
91	0xbdba7880	-0.09105015
92	0xbec88740	-0.39165688
93	0x3e2cd039	0.16876306
94	0xbe610481	-0.21974374
95	0xbd23ea85	-0.040018577
96	0x3e185380	0.14875603
97	0xbd374dd3	-0.044751953
98	0xbe8b0076	-0.2714879
99	0x3d1047c7	0.035224702
100	0x3dd4374b	0.10362109
101	0xbf18bb82	-0.59661114
102	0x3f0b7072	0.5446845
103	0xbd99b24d	-0.07504711
104	0xbe8e754f	-0.27823874
105	0x3f0567ad	0.5211132
106	0xbe30823b	-0.17237179
107	0xbde61174	-0.11233798
108	0x3eba439f	0.36379716
109	0xbed46b52	-0.4148813
110	0x3e2b43b6	0.16725048
111	0xbd0a7946	-0.03380706
112	0x3ecf3103	0.4046708
113	0xbb9013fd	-0.004396914
114	0x3bb6a7fd	0.005574225
115	0xbe9cc5b3	-0.30619583
116	0xbd4fc201	-0.050722126
117	0x3eb47e57	0.3525264
118	0xbe8c3d14	-0.2739035
119	0xbf60aea3	-0.87766474
120	0x3f292482	0.6607133
121	0x3e2a2dde	0.1661906
122	0xbf16c841	-0.58899313
123	0x3f95fd9b	1.1718019
124	0xbf4c9cc1	-0.7992669
125	0x3e29453c	0.16530317
126	0x3ed23d56	0.4106242
127	0xbe913b23	-0.2836543
128	0xbe6d24e5	-0.23158605
129	0x3f21fb7f	0.6327438
130	0xbe6e97e4	-0.23300129
131	0x3e484c45	0.19560345
132	0xbeecaadf	-0.46224114
133	0xbf2a2744	-0.66466165
134	0x3e97c252	0.29640442
135	0xbe710018	-0.23535192
136	0x3e509846	0.20370588
137	0xbe0411ed	-0.12897463
138	0x3ea5bbf1	0.3236995
139	0xbd4cb6ad	-0.0499789
140	0xbebd52f1	-0.36977342
141	0x3eec47e1	0.4614859
142	0x3db78dd7	0.08962601
143	0xbf3b82bd	-0.73246366
144	0xbf02c5c4	-0.51083016
145	0xbdd94756	-0.106093094
146	0x3e55f658	0.20894754
147	0xbe84c13f	-0.25928685
148	0x3cb7d772	0.0224416
149	0xbeaecaa6	-0.34138983
150	0x3e5360f2	0.2064245
151	0x3e417a3a	0.18894282
152	0xbf43a3de	-0.76421916
153	0x3d160dcc	0.03663425
154	0xbee3272d	-0.44365826
155	0xbd1df33c	-0.038562045
156	0xbf14824a	-0.58011305
157	0xbe951387	-0.2911646
158	0xbf1d4730	-0.6143675
159	0xbf042828	-0.51623774
160	0x3ea12d93	0.31480083
161	0xbfb48cf8	-1.410552
162	0x3ed862f1	0.42262986
163	0x3eae8cf3	0.3409191
164	0x3f718812	0.9434825
165	0xbf08daeb	-0.5345904
166	0xbe52f3a3	-0.20600753
167	0xbe26a983	-0.16275601
168	0x3efff96f	0.4999499
169	0x3f84c26d	1.0371834
170	0x3dc27f8c	0.09496984
171	0xbeb7dec1	-0.35912135
172	0x3d29ac7f	0.04142427
173	0x3f09947a	0.5374218
174	0x3ef7bba6	0.48385352
175	0xbf295fdf	-0.6616191
176	0xbc862a11	-0.01637748
177	0x3f4a412a	0.7900568
178	0x3e12ca80	0.1433506
179	0x3f08d3e6	0.5344833
180	0xbf7ccf59	-0.9875389
181	0x3a8e59bb	0.0010860482
182	0x3e2aad31	0.1666763
183	0xbeb700a9	-0.3574269
184	0x3e09b818	0.13449132
185	0x3db382c3	0.08765175
186	0x3eaa9a27	0.33320734
187	0xbf8e62af	-1.1123866
188	0x3f74f440	0.95685196
189	0x3b62d0af	0.0034609248
190	0xbedeefd2	-0.43542343
191	0xbfb718e6	-1.4304473
192	0x3f8c5060	1.0962029
193	0x3f01069c	0.5040071
194	0x3f494143	0.78615206
195	0x3e14cdb2	0.14531592
196	0xbf191a47	-0.5980572
197	0xbdc46f42	-0.09591533
198	0xbd62761f	-0.05528843
199	0x3efd07e5	0.49420086
200	0xbe42fd78	-0.19042003
201	0xbbb44455	-0.00550131
202	0x3e7533d9	0.2394556
203	0xbf183e79	-0.59470326
204	0xbeaf5eff	-0.34252164
205	0x3d68d297	0.05684146
206	0x3eaf95fb	0.34294114
207	0xbd00bfa1	-0.03143275
208	0x3f0a3e38	0.5400119
209	0x3f2d563a	0.67709696
210	0xbee4f7fd	-0.4472045
211	0x3e1a040e	0.15040609
212	0x3f33ccd9	0.7023445
213	0xbee9bcd7	-0.45651886
214	0x3ed1605f	0.40893838
215	0x3e237407	0.1596223
216	0xbe9c8139	-0.3056734
217	0x3b923bd6	0.0044626994
218	0xbf859034	-1.0434632
219	0x3f059e39	0.52194554
220	0x3e2dd5c9	0.16976084
221	0xbed0de90	-0.40794802
222	0xbee9f5e8	-0.45695424
223	0xbeec9254	-0.4620539
224	0xbeb7e96e	-0.3592028
225	0xbeb7fdf4	-0.35935938
226	0x3eff3dd1	0.4985185
227	0xbe777526	-0.24165782
228	0xbe689b5b	-0.22715513
229	0xbe55a168	-0.20862353
230	0xbec28797	-0.37994072
231	0x3ea17504	0.31534588
232	0xbf0d5bc5	-0.55218154
233	0x3e68d8c5	0.22738941
234	0xbec89834	-0.39178622
235	0x3f1d439b	0.6143128
236	0xbf621ad5	-0.8832219
237	0xbf198163	-0.59963053
238	0x3e39e7ee	0.1815488
239	0x3f2c4f6f	0.67308706
240	0xbdd53b99	-0.10411758
241	0x3e96bc08	0.2944033
242	0x3e80126e	0.2501406
243	0x3ecb1c3a	0.39669973
244	0xbae32e85	-0.001733259
245	0xbe9ccd2b	-0.3062528
246	0x3e5b7a9c	0.2143349
247	0xbe656724	-0.22402626
248	0x3e794311	0.2434199
249	0xbf033a0a	-0.51260436
250	0xbe487d2a	-0.19578996
251	0x3e13b32c	0.14423817
252	0x3e333535	0.17500766
253	0x3f4c2343	0.79741305
254	0x3e8358e3	0.25653753
255	0xbf20b85d	-0.62781316

encoder.lstm.weight_hh_l0 f4 [200, 50]
0	0x3da4046b	0.08008655
1	0x3eef42cc	0.4673065
2	0x3df140f8	0.1177997
3	0xbee64ee0	-0.44982052
4	0x3ed133ba	0.40859777
5	0xbee49882	-0.44647604
6	0x3e32c778	0.17458904
7	0x3f158d69	0.584189
8	0xc01bfeca	-2.437426
9	0xbe4e90c9	-0.20172419
10	0xbe83d528	-0.25748563
11	0xbeafda92	-0.34346443
12	0x3f14bf0c	0.58104014
13	0x405dd2bd	3.4659874
14	0xbf203a39	-0.6258884
15	0x3f139499	0.5764862
16	0xbec634b6	-0.3871209
17	0x3f947358	1.15977
18	0x3f6d8dbd	0.927944
19	0x3e2a3b78	0.16624248
20	0x3eacbd84	0.3373834
21	0xbf086985	-0.5328601
22	0xbeac8ab1	-0.33699563
23	0xbf06fec9	-0.5273252
24	0xbf0d4740	-0.55186844
25	0xbf1357f7	-0.575561
26	0xbeb465fe	-0.35234064
27	0xbd142211	-0.0361653
28	0xbd9a4d65	-0.07534293
29	0xbd8632bd	-0.06552646
30	0x3cfba310	0.030717403
31	0xbf39b243	-0.7253763
32	0xbf088e7a	-0.533424
33	0x3f071805	0.52771026
34	0x3f27d249	0.65555245
35	0x3c0910e2	0.008365842
36	0x3f058bd8	0.5216651
37	0xbd3ccafe	-0.046092026
38	0x3edef7a2	0.43548304
39	0xbf89fe9a	-1.0780823
40	0x3dd3956f	0.103312366
41	0x3f3a866e	0.72861373
42	0x3e6302e0	0.22169065
43	0x3c3d6cd1	0.011561588
44	0x3ed7d6ef	0.4215617
45	0x3e2c0b85	0.1680127
46	0xbe8f73c7	-0.2801802
47	0xc06137c5	-3.519029
48	0xbf1d01a6	-0.6133064
49	0x3fae7645	1.3629843
50	0xbbe12bd1	-0.0068716784
51	0x3ebf385b	0.37347683
52	0x3d02958a	0.031880893
53	0x3d1fc9c7	0.03901079
54	0x3d9254a2	0.07145049
55	0x3d304e45	0.043043394
56	0x3bc5c29f	0.0060351635
57	0x3ead0280	0.3379097
58	0x3ed56fd2	0.41686875
59	0xbef7ef7a	-0.48424894
60	0x3c9b0698	0.018924043
61	0x3bdf5b69	0.006816317
62	0xbe947e35	-0.29002538
63	0x3e20a671	0.15688492
64	0xbeaec1a1	-0.34132102
65	0x3eb00b6e	0.3438372
66	0xbea2bde2	-0.31785494
67	0x3ec59717	0.38591835
68	0xbdcfe41b	-0.101509295
69	0xbd8991aa	-0.06717236
70	0x3eb20187	0.3476679
71	0xbea94fff	-0.33068845
72	0x3d8adc8c	0.06780347
73	0x3dcdcde1	0.10049034
74	0xbeb2419d	-0.34815684
75	0xbea9c244	-0.33156025
76	0xbc5e70dd	-0.013576713
77	0x3ca8c9d6	0.020604055
78	0x3cc1dcb2	0.023664806
79	0xbc55a30c	-0.013039362
80	0xbd58262f	-0.05277079
81	0x3c0fb0a7	0.008770145
82	0xbeb28ef2	-0.34874684
83	0x3eae0982	0.3399163
84	0x3dbd4686	0.09241967
85	0xbd3b7a6c	-0.045771047
86	0x3eab8f79	0.33507898
87	0x3d1801c7	0.03711107
88	0x3eb1b4ed	0.34708348
89	0xbdcdc1aa	-0.10046704
90	0xbbfa9548	-0.0076471902
91	0x3c6cba91	0.014448778
92	0x3f14b995	0.58095676
93	0xbde05442	-0.10953571
94	0xbd5bdb28	-0.0536758
95	0x3cb0331e	0.02150875
96	0xbd11fb2f	-0.035639938
97	0x3e410db6	0.18852887
98	0xbeaf50a4	-0.3424121
99	0x3eae499c	0.34040534
100	0xbda4a518	-0.08039302
101	0x3eaee8a5	0.3416187
102	0x3e7ab584	0.24483305
103	0xbeee06c1	-0.46489528
104	0x3f15f1a5	0.58571845
105	0xbe8c95c4	-0.27458012
106	0xbd8dc2dc	-0.06921932
107	0x3ee75ea8	0.45189404
108	0xc029dd9c	-2.654151
109	0xbda82a08	-0.08211142
110	0x3cd17619	0.025569009
111	0xbf08ee42	-0.5348855
112	0x3ea35a6d	0.31904927
113	0x3fcabc1b	1.5838655
114	0xbf0ed09f	-0.5578708
115	0x3eee1d78	0.46506858
116	0xbe77b268	-0.2418915
117	0x3fb13901	1.3845521
118	0x3fb506e2	1.4142725
119	0x3caefa6a	0.021359641
120	0x3e3b3b51	0.18284346
121	0xbecdd52c	-0.402017
122	0xbf1bf88a	-0.60926116
123	0xbdb0dc86	-0.086358115
124	0xbedcdc7e	-0.43136972
125	0xbee3a7c5	-0.44463935
126	0xbf531603	-0.8245546
127	0x3e8cf841	0.27533153
128	0x3e5851b0	0.21124911
129	0x3e4c40e4	0.19946629
130	0xbdaf427c	-0.08557603
131	0xbf58804b	-0.8457076
132	0xbecc4011	-0.3989263
133	0x3ea1ac2b	0.31576666
134	0x3f3bffe7	0.7343735
135	0xbd1e198e	-0.03859859
136	0x3ed4015e	0.41407293
137	0xbe1d4ba2	-0.15360883
138	0x3ec3a18a	0.38209182
139	0xbf8ceb8e	-1.1009386
140	0x3ebcb2d2	0.3685518
141	0x3f5f8040	0.8730507
142	0x3c016504	0.007897619
143	0x3ebecde7	0.37266466
144	0x3d1d2c13	0.03837211
145	0xbab70ffd	-0.0013966557
146	0xbeb6ef0f	-0.35729262
147	0xbf958ce4	-1.1683621
148	0xbef83dbf	-0.4848461
149	0x3fba69f5	1.4563586
150	0x3dd3b09e	0.103364214
151	0x3e9c0b7f	0.3047752
152	0xbde0e85b	-0.10981818
153	0xbe8e6025	-0.27807727
154	0x3c76b83b	0.015058572
155	0xbf01f642	-0.50766385
156	0x3e153915	0.14572556
157	0x3eec4729	0.4614804
158	0xc04ced45	-3.2019818
159	0x3d86c2ac	0.065800995
160	0xbe15cbd2	-0.14628533
161	0x3d3054e8	0.043049723
162	0x3e209ab5	0.15684016
163	0x3ff703ad	1.9297997
164	0xbf06b852	-0.52625
165	0x3ee6e77e	0.4509849
166	0xbe262fcd	-0.16229172
167	0x3f3465fd	0.7046812
168	0x3e075d11	0.13219096
169	0x3d6f7d0f	0.058468875
170	0x3e4fc8d3	0.20291452
171	0xbed502b3	-0.41603622
172	0x3d8424c0	0.06452322
173	0xbe21cecb	-0.15801542
174	0xbee33a43	-0.44380388
175	0xbee1f2a6	-0.4413044
176	0xbe8030c3	-0.25037202
177	0xbe043388	-0.12910283
178	0xbe61cdc4	-0.2205115
179	0xbd616db5	-0.055036265
180	0x3cb7efef	0.022453276
181	0xbefa6eb8	-0.48912597
182	0xbed42c9c	-0.41440284
183	0x3e83d81c	0.25750816
184	0x3ec9b473	0.39395484
185	0x3c52bcde	0.012862412
186	0x3ed18fd8	0.40930057
187	0xbcc5168e	-0.024058606
188	0x3e8ba7f6	0.27276582
189	0xbeaa9931	-0.3332
190	0xbd28d962	-0.041222937
191	0x3f01a3a4	0.5064032
192	0x3e671b06	0.22568902
193	0x3e03aeda	0.1285967
194	0x3df5f16f	0.120089404
195	0x3e21effc	0.15814203
196	0x3bcf59ec	0.006327858
197	0xbfe21acf	-1.7664431
198	0xbefb0c3e	-0.49032778
199	0x3f0d8759	0.5528465
200	0xbcfb27fd	-0.030658716
201	0x3e4bb006	0.19891366
202	0x3dad2922	0.08455111
203	0xbee72e9c	-0.45152748
204	0x3e736a8a	0.2377111
205	0xbe3c6568	-0.18398058
206	0xbda35b54	-0.07976404
207	0x3e43e653	0.1913083
208	0x3f0da777	0.55333656
209	0xbe7410e8	-0.23834574
210	0x3bce4fe5	0.0062961453
211	0xbf1bb77a	-0.6082684
212	0x3e1039f0	0.14084601
213	0x3f17a80d	0.592408
214	0xbebce731	-0.36895135
215	0x3e4566e2	0.19277528
216	0xbe11e05a	-0.1424574
217	0x3f9ee385	1.2413183
218	0x3f1a3b16	0.6024641
219	0x3cde4ea7	0.027137114
220	0x3daae6c3	0.083447956
221	0xbe250754	-0.16116077
222	0xbe2bb453	-0.16768007
223	0x3cc3b49c	0.023889832
224	0xbe2f1c46	-0.17100629
225	0xbe449625	-0.191979
226	0xbfb23c58	-1.3924665
227	0x3e1d14f6	0.15340027
228	0x3e13a467	0.14418183
229	0x3db2c336	0.0872864
230	0xbcea92ab	-0.02863439
231	0xbf99658e	-1.1984117
232	0xbe264fa4	-0.16241318
233	0x3e041faf	0.12902711
234	0x3f51113f	0.8166694
235	0x3d86ffd5	0.06591765
236	0x3e2c6ed7	0.16839157
237	0x3d9d981f	0.076950304
238	0x3e55fc11	0.20896937
239	0xbf0e37f7	-0.55554146
240	0x3d5d597d	0.05404042
241	0x3fa58295	1.2930475
242	0x3a10d79c	0.00055252924
243	0x3e52a621	0.20571186
244	0x3c3ad29e	0.011402754
245	0xbcd8f65b	-0.026484659
246	0xbe21c3f2	-0.15797403
247	0xbda156a3	-0.07877853
248	0xbe65d402	-0.22444156
249	0x3fc4893e	1.5354383
250	0x3d7b640e	0.061374716
251	0x3e8f5eb3	0.28001937
252	0xbc185b1a	-0.009299064
253	0xbdeb5c07	-0.11492162
254	0x3dcedf24	0.101011544
255	0xbed00bea	-0.4063409

encoder.lstm.bias_ih_l0 f4 [200]
0	0xbffff233	-1.9995788
1	0x3f0a3347	0.53984493
2	0x3f72cc68	0.9484315
3	0xc038abb1	-2.8854792
4	0x3ef73def	0.4828944
5	0xc02ada7a	-2.6695848
6	0xc01f4b54	-2.4889727
7	0x3eb94598	0.36185908
8	0x3fa27f7d	1.2695156
9	0xc006d8de	-2.1069865
10	0xbf8ec697	-1.1154355
11	0xc00916b7	-2.1420114
12	0xbde43b6b	-0.111441456
13	0xbfc78395	-1.5587031
14	0x3eca4443	0.39505205
15	0x3f17b2bc	0.592571
16	0xbf835ed7	-1.0263318
17	0x3f0daaaf	0.5533857
18	0x3fbf37fb	1.4938959
19	0xbf0a0eea	-0.5392901
20	0x3f6a8988	0.91616106
21	0x3f4616d9	0.7737861
22	0xbd74fdfd	-0.059812535
23	0x3fc2b9a6	1.5212905
24	0x3f5c887f	0.86145777
25	0x3e9710ac	0.29504907
26	0xbef42798	-0.47686458
27	0xc0120d4c	-2.2820616
28	0xc052b781	-3.2924502
29	0xbf974afb	-1.1819757
30	0xc00f7d7e	-2.2420344
31	0xbfc84a08	-1.5647593
32	0x3f56600d	0.8374031
33	0xbf14d3ea	-0.58135855
34	0xc008bc18	-2.1364803
35	0xbf9b934e	-1.2154329
36	0x3f451fa9	0.77001435
37	0xbf26b4c3	-0.6511957
38	0x3f14fad7	0.5819525
39	0xbf921527	-1.1412705
40	0x3e934357	0.28762314
41	0xbfb7ad7d	-1.434982
42	0xc00fcda3	-2.246926
43	0xbffbac6a	-1.9661992
44	0xbe9f8018	-0.31152415
45	0xbfa36276	-1.2764423
46	0xc00a53a9	-2.1613562
47	0x3dc142a1	0.094365366
48	0x3f06791a	0.52528536
49	0xbf984344	-1.1895528
50	0x3f89a84a	1.0754483
51	0x3f0a2a12	0.53970444
52	0x40044234	2.0665407
53	0xbf89692a	-1.0735219
54	0x4021aa92	2.5260358
55	0x3f462d3b	0.77412766
56	0x3eb1a5fd	0.34696952
57	0x3f0be1cb	0.5464141
58	0x4008a014	2.1347704
59	0xbe1c7db5	-0.15282328
60	0x3fc3fc68	1.5311403
61	0xbeda7d35	-0.4267365
62	0x40134127	2.3008516
63	0xbf3e8d13	-0.7443401
64	0x3f31422a	0.69241583
65	0x3edd1ca7	0.43185923
66	0x3fec1464	1.8443723
67	0x3f1f3add	0.62199193
68	0x401fb92b	2.4956768
69	0x3fa8f467	1.3199586
70	0x3c2d7fb8	0.010589533
71	0x3e82583f	0.2545795
72	0x40145b33	2.3180664
73	0x4005fe71	2.0936549
74	0x3df29b26	0.118459985
75	0x3f3635d6	0.711759
76	0xbeeae816	-0.45880193
77	0x3ee7135e	0.45131963
78	0x3e0194f4	0.12654477
79	0x3f9f1a66	1.2429931
80	0x3f678773	0.90441054
81	0xbf856fc9	-1.0424739
82	0x3e0eea75	0.13956626
83	0x4006300b	2.0966823
84	0x3ee3782d	0.44427624
85	0x3fb94a96	1.4475887
86	0x3e912cf5	0.28354612
87	0x400af4a9	2.1711829
88	0x3fde48fc	1.7366023
89	0x4016d7ca	2.3569207
90	0x3fee7178	1.8628378
91	0xbe2b8635	-0.16750415
92	0x3f87b69f	1.0602607
93	0x3d1adbcb	0.037807267
94	0x3fdf6624	1.7453046
95	0x3e29c83f	0.16580294
96	0x3fd0e0a0	1.631855
97	0x40213784	2.5190134
98	0x3efc6197	0.49293205
99	0x3fdc479d	1.7209355
100	0xbe834c4b	-0.25644144
101	0xbf82fe55	-1.0233866
102	0xbfb17225	-1.3862959
103	0x3f480225	0.7812827
104	0xbfeed7c5	-1.8659598
105	0x3fa6bf68	1.3027163
106	0xbe5e08ab	-0.21682994
107	0xbf930de4	-1.1488614
108	0x400e576b	2.2240856
109	0x3f9d7f8c	1.2304549
110	0x3f48efa7	0.7849068
111	0x3fd04bf1	1.6273175
112	0xbfdedaaf	-1.7410487
113	0xbf489c60	-0.7836361
114	0x3fa4062d	1.2814385
115	0xbf9f9fd3	-1.247065
116	0x3f8759ee	1.0574319
117	0xbf8af30c	-1.0855422
118	0xc003e0f2	-2.0606046
119	0xbf97eb16	-1.1868618
120	0xbf9092a4	-1.1294751
121	0x3f872936	1.0559452
122	0x3fc8ce0f	1.5687884
123	0x3fea4c2d	1.8304497
124	0x3f8bdcf9	1.092681
125	0x3f8fd486	1.1236732
126	0xbf5ac0c1	-0.8545037
127	0xbf8464f6	-1.0343311
128	0xbfa6ba87	-1.3025674
129	0xbf2a355b	-0.66487664
130	0x3d083f98	0.033263773
131	0x3fa5f3eb	1.2965063
132	0x3f8a6370	1.0811596
133	0xbfabe92b	-1.3430532
134	0xbf4d48f7	-0.8018946
135	0x3eeeb515	0.4662253
136	0xbf85fdcc	-1.0468078
137	0x3f637a7c	0.8885877
138	0xbf8b39c6	-1.0877006
139	0x3fd9d9db	1.7019609
140	0xbf8a4f07	-1.0805367
141	0xbf372b98	-0.71550894
142	0xbf9fa1cf	-1.2471255
143	0xbfc3e419	-1.5303985
144	0xbfb3d5e5	-1.404965
145	0xbfc2d60f	-1.5221575
146	0x3f8e5ffc	1.1123042
147	0x403c770f	2.9447668
148	0x3f93ecec	1.1556678
149	0xbfaf2017	-1.3681668
150	0xbff6aac8	-1.9270868
151	0xc0028ac7	-2.0397203
152	0xc00ae150	-2.170002
153	0xbf7cf67c	-0.98813605
154	0xc007a33f	-2.1193388
155	0xbfe5ea7f	-1.7962188
156	0xbfef2c32	-1.8685362
157	0xbff55a49	-1.9168178
158	0xc00978d9	-2.148001
159	0x3fbfdbb9	1.4988929
160	0xbffe8b88	-1.9886332
161	0xbfa595b4	-1.2936311
162	0xbfe2f2e8	-1.7730379
163	0xbedb7ab3	-0.4286705
164	0xbff1a069	-1.8877078
165	0xbff9df29	-1.9521228
166	0xbfc5086a	-1.5393193
167	0xc0002d2f	-2.0027578
168	0xc004b82c	-2.073741
169	0xc012aba4	-2.291726
170	0xbffd59de	-1.979305
171	0xbffd80d9	-1.9804946
172	0xbfe5d3d3	-1.7955269
173	0xc0071666	-2.110742
174	0xbffb11d4	-1.9614816
175	0xbff720bb	-1.9306864
176	0xbfc41ca3	-1.5321239
177	0xbfe1010d	-1.7578446
178	0xbfa7857a	-1.3087609
179	0xc016e1f9	-2.3575423
180	0xc00c676d	-2.1938126
181	0xbf8ba073	-1.090834
182	0xbffaf0ea	-1.9604771
183	0xbfd77430	-1.6832333
184	0xbff80a9f	-1.9378241
185	0xc01e8c3e	-2.4773097
186	0xbffe545d	-1.9869496
187	0xbffe9975	-1.9890581
188	0xc019d6bf	-2.403732
189	0xbfb26f62	-1.3940241
190	0xc018b8ec	-2.3862867
191	0xbfff0049	-1.9921962
192	0x3fc94fac	1.5727439
193	0xbfbba9a0	-1.466114
194	0xc0045528	-2.0676975
195	0xbfd8111d	-1.6880223
196	0xc000aa5a	-2.0103974
197	0xbfea2e1f	-1.8295325
198	0xbffa8290	-1.9571095
199	0xbfa418b5	-1.282004

encoder.lstm.bias_hh_l0 f4 [200]
0	0xc000dbfc	-2.0134268
1	0x3f0dafb3	0.5534622
2	0x3f72ade8	0.9479661
3	0xc037f6df	-2.8744428
4	0x3eef22b7	0.46706173
5	0xc02ad976	-2.6695228
6	0xc01f127a	-2.4855027
7	0x3eb5ef84	0.35534298
8	0x3fa33f71	1.2753736
9	0xc007110e	-2.110416
10	0xbf90b189	-1.130418
11	0xc0096c19	-2.1472228
12	0xbddbb0a1	-0.10727049
13	0xbfc71d4f	-1.5555819
14	0x3ec8383d	0.39105406
15	0x3f175c62	0.5912534
16	0xbf82e9d9	-1.0227615
17	0x3f0ce38b	0.55034703
18	0x3fbf7b83	1.4959568
19	0xbf09c6e6	-0.5381912
20	0x3f6a8da0	0.9162235
21	0x3f462795	0.7740415
22	0xbd846765	-0.064650334
23	0x3fc20aec	1.5159583
24	0x3f5b93b5	0.8577226
25	0x3e98ad14	0.29819548
26	0xbeef3d7a	-0.4672659
27	0xc01301fc	-2.296996
28	0xc052b38d	-3.292209
29	0xbf96c2fd	-1.1778256
30	0xc00feea6	-2.248941
31	0xbfca90e8	-1.5825472
32	0x3f565d05	0.83735687
33	0xbf17b35a	-0.59258044
34	0xc008d2c8	-2.137865
35	0xbf9b3e5c	-1.2128406
36	0x3f4223db	0.7583596
37	0xbf261987	-0.648827
38	0x3f144f0f	0.57933134
39	0xbf8feccd	-1.1244141
40	0x3e935827	0.28778192
41	0xbfb9093d	-1.4455944
42	0xc010103d	-2.250991
43	0xbffc9bfc	-1.9735103
44	0xbe96ff1a	-0.29491502
45	0xbfa500ee	-1.2890909
46	0xc00a5bd7	-2.1618555
47	0x3dd4b76f	0.1038655
48	0x3f062428	0.5239892
49	0xbf999810	-1.1999531
50	0x3f89bf3e	1.0761487
51	0x3f0bcc66	0.5460876
52	0x40036b99	2.0534422
53	0xbf88effc	-1.0698237
54	0x40219f2a	2.5253396
55	0x3f45f72b	0.77330273
56	0x3eb4f44d	0.35342637
57	0x3f0c497b	0.5479962
58	0x4008e5c8	2.1390247
59	0xbe151c0b	-0.14561479
60	0x3fc43e9c	1.5331607
61	0xbedbe8dd	-0.42951098
62	0x4013b373	2.3078277
63	0xbf3f5f87	-0.7475514
64	0x3f2eee04	0.68331933
65	0x3ed6e413	0.41970882
66	0x3fed3044	1.8530354
67	0x3f1c8403	0.61138934
68	0x401f84e9	2.4924872
69	0x3fa85913	1.3152183
70	0x3c20c256	0.009811958
71	0x3e81e97d	0.2537345
72	0x4014e839	2.3266737
73	0x4005f29b	2.0929325
74	0x3df87924	0.12132481
75	0x3f379240	0.71707535
76	0xbef34e42	-0.47520643
77	0x3ee0ad54	0.4388224
78	0x3e0799ae	0.13242218
79	0x3fa0a7a4	1.255116
80	0x3f698c57	0.91229767
81	0xbf83d4b5	-1.0299288
82	0x3dfa1746	0.1221147
83	0x40064a11	2.0982707
84	0x3ee3aba5	0.44466892
85	0x3fbaec18	1.46033
86	0x3e985a1f	0.29756257
87	0x400b027b	2.1720264
88	0x3fe00e78	1.7504416
89	0x40163f4c	2.3476133
90	0x3fee0f14	1.8598351
91	0xbe2ee2ad	-0.17078657
92	0x3f876b71	1.0579664
93	0x3cd60df4	0.0261297
94	0x3fe04e0c	1.7523818
95	0x3e301541	0.17195608
96	0x3fd27578	1.6442099
97	0x4020f066	2.5146728
98	0x3ef6c921	0.48200324
99	0x3fdcbc95	1.7245051
100	0xbe7fb845	-0.24972637
101	0xbf83e60f	-1.0304583
102	0xbfb18735	-1.3869387
103	0x3f480845	0.7813762
104	0xbff03fe9	-1.8769504
105	0x3fa753e6	1.3072479
106	0xbe62b975	-0.22141059
107	0xbf9224de	-1.1417501
108	0x400e21a1	2.2208025
109	0x3f9d1598	1.2272215
110	0x3f4a497d	0.79018384
111	0x3fd054c1	1.6275865
112	0xbfdf660b	-1.7453016
113	0xbf45c904	-0.7725985
114	0x3fa45eeb	1.2841467
115	0xbf9edefd	-1.2411801
116	0x3f8770ac	1.058126
117	0xbf8b2cb6	-1.087302
118	0xc0044232	-2.0665402
119	0xbf9800bc	-1.1875224
120	0xbf8e8f4a	-1.1137478
121	0x3f86e3fc	1.0538325
122	0x3fca6bc9	1.5814143
123	0x3fe98c47	1.8245934
124	0x3f8bf1d3	1.0933174
125	0x3f90f602	1.1325076
126	0xbf58d1ad	-0.8469494
127	0xbf830845	-1.0236899
128	0xbfa8f27f	-1.3199004
129	0xbf2af905	-0.66786224
130	0x3caba1a8	0.020951107
131	0x3fa6c977	1.3030232
132	0x3f8a9fe0	1.083004
133	0xbfaa84bd	-1.3321759
134	0xbf4c0eef	-0.79710287
135	0x3eee9fe5	0.46606365
136	0xbf86d85a	-1.0534775
137	0x3f623be0	0.8837261
138	0xbf8abe04	-1.0839238
139	0x3fda30ab	1.7046102
140	0xbf8a3e4b	-1.080026
141	0xbf34877a	-0.7051922
142	0xbfa0f395	-1.2574335
143	0xbfc5384f	-1.5407809
144	0xbfb3d4fd	-1.4049374
145	0xbfc33ccd	-1.525293
146	0x3f8e4b46	1.1116722
147	0x403c6ef7	2.9442728
148	0x3f937b86	1.1522071
149	0xbfb0d60f	-1.3815325
150	0xbff7daa0	-1.9363594
151	0xc00223f6	-2.033445
152	0xc00b476a	-2.1762338
153	0xbf7c79fc	-0.98623633
154	0xc0073699	-2.1127074
155	0xbfe694b1	-1.8014127
156	0xbfedca88	-1.8577433
157	0xbff47335	-1.9097658
158	0xc0095873	-2.1460235
159	0x3fbf7205	1.4956671
160	0xbfff2c40	-1.9935379
161	0xbfa40412	-1.2813742
162	0xbfe3cb52	-1.7796423
163	0xbedf2c9d	-0.43588725
164	0xbff2a4bf	-1.8956527
165	0xbff89e2d	-1.9423271
166	0xbfc55b38	-1.5418463
167	0xbffefb89	-1.9920512
168	0xc0057178	-2.0850506
169	0xc0131fae	-2.2988086
170	0xbffe0eac	-1.9848228
171	0xbffb79f1	-1.9646589
172	0xbfe7a85d	-1.8098255
173	0xc006a430	-2.1037712
174	0xbff9a1aa	-1.9502461
175	0xbff73973	-1.9314407
176	0xbfc3592d	-1.5261589
177	0xbfe29905	-1.7702948
178	0xbfa7ebf0	-1.3118877
179	0xc017f0ad	-2.3740647
180	0xc00c7631	-2.1947138
181	0xbf8c9ceb	-1.0985388
182	0xbffa8ede	-1.957485
183	0xbfd6df00	-1.6786804
184	0xbff82961	-1.9387628
185	0xc01f44fe	-2.488586
186	0xbffc9591	-1.9733144
187	0xbffe5b67	-1.9871644
188	0xc019b26f	-2.4015157
189	0xbfb47538	-1.4098272
190	0xc0185464	-2.3801508
191	0xbffd7da7	-1.9803971
192	0x3fc836b4	1.5641694
193	0xbfbba0b4	-1.4658418
194	0xc003f1b4	-2.0616274
195	0xbfd7a339	-1.6846687
196	0xc0003706	-2.0033584
197	0xbfe90b7d	-1.8206631
198	0xbffacc9e	-1.9593694
199	0xbfa40715	-1.2814661

encoder.linear.weight f4 [2, 50]
0	0x4045fb49	3.0934622
1	0x3db56e5c	0.0885894
2	0xc02284a2	-2.5393453
3	0xbffa6757	-1.9562787
4	0xc019906f	-2.3994405
5	0xc01ae99c	-2.4205084
6	0x406bffc7	3.6874864
7	0x3e1a95da	0.15096226
8	0x3dd27cbb	0.10277697
9	0xbec4a134	-0.38404238
10	0xc04ffd78	-3.2498455
11	0x401c1056	2.438497
12	0x4018f408	2.3898945
13	0xbbe72628	-0.007054109
14	0xbe265e91	-0.16247012
15	0x3e20d2c1	0.15705396
16	0xbcd5dbec	-0.026105843
17	0x3d939607	0.0720635
18	0xbfefbeea	-1.8730137
19	0x4066f8c5	3.6089337
20	0x3e6744b7	0.22584806
21	0xbe162641	-0.1466303
22	0x40059aa5	2.0875638
23	0xc014540c	-2.3176298
24	0xbe18ce28	-0.14922392
25	0xbdb25bbc	-0.08708903
26	0x3ea62d6e	0.32456535
27	0xc041815b	-3.0235202
28	0xc0437fb0	-3.0546684
29	0xc0617abc	-3.523116
30	0x40707b5c	3.7575293
31	0xc03aa64f	-2.9164007
32	0xbe1d4bb0	-0.15360904
33	0xbe0fc61a	-0.14040413
34	0x4052bb76	3.2926917
35	0x407725dd	3.861686
36	0x3e153e84	0.14574629
37	0x4028c0c3	2.6367652
38	0xc080145b	-4.002485
39	0xbd30cc61	-0.04316366
40	0xc0658d68	-3.5867558
41	0x405273bf	3.2883146
42	0x3da10667	0.07862549
43	0xc02ba5b7	-2.6819894
44	0x403b2f25	2.9247525
45	0x403f4d32	2.9890866
46	0x4049f101	3.1553347
47	0xbed3017e	-0.41212076
48	0xbded1c55	-0.115776695
49	0xbe388deb	-0.18022887
50	0xbe3b1c64	-0.18272549
51	0x411a7880	9.654419
52	0x4052147d	3.2825005
53	0xbe08b924	-0.13351876
54	0x409fdb55	4.995524
55	0xbfbd8e1e	-1.4808996
56	0x3f22fcf2	0.63667214
57	0x41235f95	10.210835
58	0xc091eb06	-4.5599394
59	0xc0f1614d	-7.5431275
60	0xc056f979	-3.3589766
61	0xc014476c	-2.3168592
62	0x40cadcdb	6.33946
63	0x4056de3f	3.3573148
64	0xc1238e06	-10.222174
65	0x412347ef	10.205062
66	0xc118bfa4	-9.546787
67	0x4126f98d	10.4359255
68	0x40bea0b5	5.9571176
69	0x4063cb88	3.5592976
70	0x411723b4	9.446217
71	0xc122dafd	-10.178464
72	0xc0a38a85	-5.110659
73	0xc0c4e280	-6.152649
74	0xc124d566	-10.302099
75	0xc11ff32e	-9.99687
76	0x408ea21c	4.4572887
77	0x3ec7776b	0.38958296
78	0x3f0f12ab	0.5588786
79	0x3fce4967	1.6116151
80	0x3f48ad1b	0.7838914
81	0xc04b9c70	-3.1814232
82	0xc12301c4	-10.187931
83	0x4113e3f2	9.243151
84	0x3e556411	0.20838954
85	0x3f981afc	1.1883235
86	0x41223bcf	10.139602
87	0xc0601107	-3.5010393
88	0x40f9a797	7.8017077
89	0xc0ff94fe	-7.9869375
90	0x405c2837	3.4399545
91	0x3f6b2c89	0.9186483
92	0x41157752	9.341631
93	0x3f7be097	0.9838957
94	0x40a51bac	5.159628
95	0x3ff1729b	1.88631
96	0xc027586d	-2.614772
97	0xc0aac1f7	-5.3361773
98	0xc1254d4d	-10.331372
99	0x41228a08	10.158699

decoder.embed.weight f4 [1004, 50]
0	0xbdb2e1d0	-0.087344766
1	0xbdb2f7b7	-0.08738654
2	0x3bdaa430	0.0066724047
3	0x3d81a2c9	0.06329877
4	0xbdaa02db	-0.08301326
5	0x3d94c51f	0.0726416
6	0xbb4cc740	-0.0031246692
7	0x3d8face7	0.070154004
8	0x3b9da320	0.004810706
9	0xbd9934fb	-0.07480808
10	0xbdb4efab	-0.088347755
11	0xbd1b68e3	-0.037941825
12	0x3d0d813e	0.034547083
13	0x3c3f39f0	0.011671528
14	0xba51d280	-0.0008004084
15	0xbd5512d3	-0.052019905
16	0xbc56b018	-0.013103507
17	0xbdc3a9e0	-0.095538855
18	0x3da845d1	0.082164414
19	0xbc1a2f10	-0.009410635
20	0xbd4f80a0	-0.050659776
21	0x3db79e69	0.08965761
22	0x3ca7b300	0.020471096
23	0x3d7193d2	0.058978863
24	0xbc79e5f0	-0.015252575
25	0x3da5b29d	0.080907084
26	0xbd08484a	-0.033272065
27	0x3d0fc3ea	0.035098948
28	0x3d5b3d6a	0.053525366
29	0xbbc24c60	-0.0059295148
30	0xbd030d04	-0.031994835
31	0xbc3dcfa8	-0.011585154
32	0x3d3dad0a	0.0463076
33	0xbd906736	-0.07050936
34	0xbc7132f0	-0.014721617
35	0xbd993a8e	-0.074818715
36	0x3d3046c2	0.04303623
37	0x3dbd3fdf	0.09240698
38	0x3d89e8a7	0.06733828
39	0xbd0812fc	-0.03322123
40	0x3da4b0a5	0.08041505
41	0xbd85beba	-0.06530519
42	0xbbc94320	-0.006142035
43	0xbd9f71a8	-0.0778535
44	0x3d0c5102	0.034256943
45	0x3d7e3096	0.062058054
46	0x3ca5bcac	0.020231567
47	0xbd73a557	-0.059483852
48	0x3d04bc02	0.03240586
49	0x3d7e3bee	0.062068872
50	0x3e07ff0d	0.13280888
51	0xbf6c3cf7	-0.92280525
52	0xc00cb9fc	-2.1988516
53	0xc023b70c	-2.5580473
54	0xc03cb324	-2.9484339
55	0x3fb22b2e	1.3919427
56	0x408866fb	4.262571
57	0x3fe71a55	1.8054911
58	0x4075f0a7	3.8428133
59	0xc08c5ea9	-4.386555
60	0x4034f854	2.8276567
61	0xbf7843d4	-0.969785
62	0xbf8ad735	-1.0846926
63	0xc08bb102	-4.3653574
64	0x3fb09635	1.379584
65	0xbfe34496	-1.7755306
66	0x40564592	3.3479962
67	0xc0a12f6b	-5.0370383
68	0xc05f69fb	-3.4908435
69	0x402b8f1f	2.6806104
70	0x400504e6	2.078424
71	0xc043841e	-3.0549388
72	0xc04e2e91	-3.2215922
73	0x3f2b954a	0.6702467
74	0x3eeb9de7	0.46018907
75	0xc08e3f3e	-4.44522
76	0x404be1eb	3.185664
77	0x406fb12b	3.7451885
78	0xbff4bba5	-1.9119765
79	0xbec44ae2	-0.3833838
80	0x3efd9e02	0.49534613
81	0xbf7de331	-0.9917479
82	0xbfd51896	-1.6648128
83	0xc035fd40	-2.8435822
84	0x3f701935	0.9378846
85	0xbe1b4eeb	-0.15166824
86	0x407893d3	3.8840225
87	0xc089ccd4	-4.3062534
88	0xc0590d7d	-3.3914483
89	0xc067c8ee	-3.6216388
90	0xbfcf1de9	-1.6181003
91	0x400d3062	2.206078
92	0x409d34a7	4.9126773
93	0xbfb0615b	-1.377971
94	0x4038ad0a	2.8855615
95	0x400e6236	2.2247443
96	0xbf4ca808	-0.79943895
97	0xc0430927	-3.0474336
98	0x40582dfb	3.3778064
99	0x3e897473	0.26846656
100	0xbd4948a0	-0.049141526
101	0x3c059df0	0.008155331
102	0xbd6a38e7	-0.057183173
103	0xbd1eef8d	-0.038802672
104	0xbdc50bef	-0.09621417
105	0x3d55b28e	0.052172236
106	0xbc746ab0	-0.014918014
107	0x3d88cfb9	0.06680245
108	0xb927b400	-0.00015993416
109	0x3cadf334	0.021234132
110	0x3b585300	0.0033008456
111	0x3c7688c0	0.015047252
112	0xbbbcf330	-0.005766295
113	0xbd909f4d	-0.07061634
114	0x3c643500	0.013928652
115	0xbd0218b6	-0.031761847
116	0x3dafe52d	0.08588634
117	0xbd18ca26	-0.03730216
118	0x3c34b098	0.011028431
119	0x3d321976	0.043481313
120	0xbd1a6613	-0.037695
121	0x3d536992	0.05161435
122	0x3b5157a0	0.0031943098
123	0xbc607668	-0.013700105
124	0xbd30db1a	-0.0431777
125	0xbdaf171b	-0.08549329
126	0xbdb3e0b8	-0.08783096
127	0xbc56e618	-0.013116382
128	0x3cadfe18	0.021239325
129	0x3d82a887	0.063798
130	0x3d0f8542	0.035039194
131	0x3d766bb2	0.0601613
132	0xbdc13038	-0.09433025
133	0xbd901b8e	-0.07036506
134	0x3cf14604	0.029452331
135	0x3c1007d8	0.008790933
136	0xbd1ec767	-0.038764384
137	0xbc30f230	-0.0107999295
138	0xbd91e305	-0.07123379
139	0x3dc8f7c1	0.0981288
140	0xbd09ee2a	-0.033674397
141	0xbcd60934	-0.026127435
142	0xbae14000	-0.0017185211
143	0xbdc99635	-0.09843103
144	0x3cf7e31c	0.030259661
145	0x3d5cdc86	0.053921245
146	0x3aac6080	0.0013151318
147	0xbdcabd7a	-0.09899421
148	0xbd953652	-0.072857514
149	0xbdb2af75	-0.08724872
150	0x3d071516	0.032979093
151	0xbdabfd25	-0.08397893
152	0xbd8ea4a2	-0.06964995
153	0x3dc65d69	0.09685785
154	0x3d982fe3	0.07431009
155	0x3d3464b2	0.044041343
156	0x3d17b65a	0.03703914
157	0xbd3f9070	-0.046768606
158	0x3d04f8e2	0.032463916
159	0x3cd2b2a4	0.025719948
160	0x3d05d136	0.032670222
161	0xbcf301c0	-0.02966392
162	0xbd6ebc43	-0.05828501
163	0x3d5d71aa	0.054063477
164	0xbcfac7c0	-0.030612826
165	0xbd6596ad	-0.0560519
166	0x3b147c60	0.002265714
167	0x3d80da5d	0.062916495
168	0x3d8a2ebb	0.067471944
169	0x3dcbed07	0.09957319
170	0xbda567fe	-0.080764756
171	0x3cdc06c4	0.026858695
172	0xbd91ab20	-0.07112718
173	0x3dc02b2f	0.093832366
174	0xbdbb1598	-0.09134978
175	0xbc898360	-0.016786277
176	0x3c4dd528	0.012563027
177	0x3d69b862	0.057060607
178	0x3dc9f4ab	0.0986112
179	0xbd3b668d	-0.045752097
180	0xbd9c499d	-0.07631228
181	0x3d93a633	0.07209434
182	0x3d92c101	0.07165719
183	0xbd7151e0	-0.058915973
184	0xbdc17152	-0.09445442
185	0x3dc6d7d7	0.09709137
186	0x3d635d32	0.0555088
187	0x3dc17b89	0.094473906
188	0xbdbf0182	-0.093264595
189	0xbc8e39e8	-0.017361596
190	0x3cc57034	0.024101354
191	0xbd2b44c7	-0.041813638
192	0x3db73639	0.08945889
193	0xbd7104da	-0.058842517
194	0x3c3e44d0	0.011613086
195	0xbc69c818	-0.0142688975
196	0xbca7250c	-0.020403408
197	0xbdc2571a	-0.094892696
198	0xbda042f0	-0.07825267
199	0x3c174200	0.009232044
200	0x3ebe5603	0.37174997
201	0xbc26a37e	-0.0101708155
202	0x3db49fd7	0.088195495
203	0x3ef6c538	0.4819734
204	0x3eba5c25	0.36398426
205	0x3ca58f52	0.020209942
206	0x3e51fe25	0.20507105
207	0xbedc5811	-0.4303594
208	0xbd2db0fe	-0.04240512
209	0x3eb5a2f0	0.35475874
210	0xbf1afe90	-0.6054468
211	0x3f796402	0.97418225
212	0x3f0331cd	0.51247865
213	0xbf333be1	-0.7001324
214	0x3b89208c	0.004184788
215	0x3d1fa1a8	0.038972527
216	0xbd38ba4f	-0.045099553
217	0xbb01077d	-0.0019688301
218	0x3e03e0f4	0.12878782
219	0x3ee568e0	0.44806576
220	0xbf15be72	-0.5849372
221	0x3f5b73fc	0.85723853
222	0x3ebf701a	0.37390214
223	0x3f0f8bf1	0.5607291
224	0xbd7a383b	-0.06108878
225	0xbd986102	-0.07440378
226	0xbe0b3657	-0.13594948
227	0x3e49a9c6	0.1969367
228	0x3e875a83	0.26436242
229	0xbebd4f62	-0.36974627
230	0xbf6d754f	-0.92757124
231	0x3e9a788b	0.30170092
232	0x3ee36056	0.44409436
233	0x3d57f0cb	0.052719872
234	0x3efed7cb	0.49774012
235	0x3f1209ba	0.5704609
236	0x3e37c2bc	0.17945379
237	0xbeac0a67	-0.33601686
238	0x3dd73170	0.10507476
239	0x3f1174dc	0.5681894
240	0xbf141c35	-0.5785554
241	0x3e9b0649	0.30278233
242	0x3de2186a	0.11039813
243	0xbd815889	-0.06315715
244	0x3f4427be	0.7662314
245	0x3da250e4	0.07925585
246	0x3cf5543d	0.029947395
247	0xbf2ce628	-0.6753869
248	0x3e3de05e	0.1854262
249	0x3ea5b2de	0.32363027
250	0x3d0eb9cf	0.03484517
251	0x3e2328b1	0.15933491
252	0x3e1ce579	0.15321912
253	0x3e0d9456	0.13826117
254	0xbe580a20	-0.21097612
255	0xbf528316	-0.8223127

decoder.trans_linear.weight f4 [50, 1]
0	0x3f30f77c	0.6912763
1	0x3f6b6feb	0.9196765
2	0x3d24661e	0.04013645
3	0x3e8b8e11	0.27256826
4	0xbcbf4018	-0.023345992
5	0xbffd46ee	-1.9787271
6	0xbb28b52d	-0.0025742755
7	0xbf796777	-0.974235
8	0x3f04b680	0.5184097
9	0xbd9e4895	-0.07728688
10	0x3f9e0b5a	1.2347214
11	0x3d5dcadd	0.054148544
12	0x3eaa1a11	0.33223012
13	0xc00a6f54	-2.163045
14	0x3da337f1	0.07969654
15	0x3d14bebf	0.036314722
16	0xbf525a8b	-0.8216941
17	0xbd8dc096	-0.069214985
18	0x3e1a018b	0.15039651
19	0x3e3bdc3f	0.18345736
20	0xbf2f7a2c	-0.68545794
21	0xbfa7757a	-1.3082726
22	0xbf8f0282	-1.117264
23	0x3f17ea78	0.59342146
24	0xbf7f38fd	-0.9969633
25	0x3e244fa1	0.16046001
26	0xbd9eac5b	-0.07747718
27	0xbf6a60de	-0.9155406
28	0xbe1e9fd0	-0.15490651
29	0xbf08931c	-0.5334947
30	0x3f0fb5ab	0.5613658
31	0xbf1c52b5	-0.610637
32	0x3ef42e66	0.4769165
33	0x3e139068	0.14410555
34	0xbf294352	-0.6611835
35	0xbf6ab088	-0.91675615
36	0xbe56294f	-0.20914195
37	0xbd93de7a	-0.072201684
38	0xbf74e884	-0.9566729
39	0x3e6518eb	0.22372787
40	0x3e4dc254	0.20093662
41	0xbcc29ee4	-0.023757406
42	0x3f343b7d	0.7040327
43	0xbf537756	-0.8260397
44	0x40768dff	3.8524168
45	0x3da94581	0.0826521
46	0xbeff29fb	-0.49836716
47	0x3f567f47	0.8378796
48	0x3f4aa427	0.79156727
49	0xbcc88fa8	-0.024482563

decoder.lstm.weight_ih_l0 f4 [200, 51]
0	0xbdced523	-0.10099246
1	0x3da0df1e	0.07855056
2	0x3e77d6d0	0.24203038
3	0xbd704d76	-0.058667623
4	0x3b0477bd	0.002021297
5	0xbcaf2f35	-0.021384815
6	0xbea0a3fe	-0.31375116
7	0xbe2c2f92	-0.16815022
8	0x3cfc84cd	0.030825043
9	0x3dc5e081	0.09661961
10	0x3d0bc32a	0.03412167
11	0x3e8d1963	0.2755843
12	0x3d6b089e	0.057381265
13	0x3ef6b3a3	0.48183927
14	0x3dff29d2	0.124591485
15	0x3e97f516	0.29679173
16	0x3d85c505	0.06531719
17	0xbd9c6e31	-0.07638205
18	0x3d00da46	0.03145816
19	0x3d0dc769	0.034614
20	0x3e0e9cae	0.13926956
21	0x3e28ac21	0.16471912
22	0x3e9e21f2	0.30885273
23	0xbe13033c	-0.14356703
24	0xbe53e03c	-0.20691007
25	0x3dd5f248	0.10446602
26	0xbd42dbea	-0.047573008
27	0xbea636b8	-0.32463622
28	0x3f03ec3b	0.51532334
29	0x3ec4a938	0.38410354
30	0x3dabe1c8	0.08392674
31	0x3e8262ad	0.2546591
32	0xbd83c9a2	-0.06434943
33	0xbe644a7a	-0.22294036
34	0xbdc92a33	-0.09822502
35	0x3db642d5	0.08899466
36	0xbe79e60c	-0.24404162
37	0x3d362bf6	0.04447552
38	0xbd15184b	-0.03640012
39	0x3e07a05f	0.1324477
40	0x3e8404d3	0.2578493
41	0xbe5a5022	-0.2131963
42	0x3e830ad9	0.25594214
43	0xbcd7c01a	-0.026336718
44	0xbcd5fc80	-0.026121378
45	0xbe290fdf	-0.1650996
46	0xbb64f078	-0.003493337
47	0x3e45e4ae	0.19325516
48	0xbe1b9eff	-0.15197371
49	0x3e98f6ac	0.29875696
50	0xbee9c046	-0.45654505
51	0xbd4d7f29	-0.050170098
52	0xbda9066d	-0.08253179
53	0x3e2d48b5	0.16922267
54	0xbe87469b	-0.26421055
55	0xbf02190c	-0.5081947
56	0x3d334b0d	0.043772746
57	0x3c866530	0.016405672
58	0xbee79f11	-0.45238546
59	0x3ed4f01f	0.41589448
60	0xbd93c028	-0.07214385
61	0xbdcb31e8	-0.09921628
62	0xbe8536e9	-0.26018456
63	0xbde75713	-0.11295905
64	0xbe5569e4	-0.20841175
65	0x3c584a6e	0.013201339
66	0xbdb33b87	-0.08751588
67	0xbcfdde37	-0.03098975
68	0xbe4c58c7	-0.19955741
69	0xbe859b95	-0.26095262
70	0x3eab8a69	0.33504036
71	0xbda774b2	-0.08176555
72	0xbc80d292	-0.015725408
73	0xbe7202b4	-0.23633844
74	0x3e918e2d	0.28428784
75	0xbc4bba07	-0.012434489
76	0x3d10f0b7	0.035385814
77	0x3eadb21e	0.33924955
78	0x3e352522	0.17689946
79	0x3dd41846	0.10356192
80	0x3d007919	0.031365488
81	0xbb6c208d	-0.0036030144
82	0x3e0cc761	0.13747932
83	0x3e93f31c	0.28896415
84	0xbeab0036	-0.33398598
85	0x3ea37b06	0.31929797
86	0x3e96c97e	0.294506
87	0x3ee3e0d5	0.4450747
88	0xbd33f872	-0.043938108
89	0xbe9491cf	-0.29017493
90	0xbe48897c	-0.19583696
91	0x3e787de6	0.24266776
92	0x3d83800a	0.06420906
93	0x3e198c5d	0.1499495
94	0x3e422735	0.18960269
95	0x3f06dbf4	0.5267937
96	0xbe0d0435	-0.13771136
97	0xbe4b8867	-0.19876252
98	0xbe757675	-0.23970969
99	0x3dc4b586	0.09604935
100	0xbc363f8a	-0.011123547
101	0x4008d0a8	2.1377354
102	0xbd82ebc1	-0.06392623
103	0x3d9c6d7d	0.07638071
104	0x3e9995e5	0.29997173
105	0xbe02af10	-0.12762094
106	0xbba8282d	-0.0051317425
107	0xbf042688	-0.51621294
108	0xbec1f169	-0.37879494
109	0xbc95fad2	-0.018308077
110	0xbe561458	-0.20906198
111	0xbda0a52f	-0.07844006
112	0x3d4a9819	0.049461458
113	0x3eb1be11	0.34715322
114	0x3ec7946a	0.38980418
115	0x3d92fef7	0.07177537
116	0xbe8d62da	-0.2761448
117	0x3e641822	0.22274831
118	0xbe0026ec	-0.12514848
119	0xbce1904e	-0.02753463
120	0x3e8682e1	0.26271728
121	0xbda089bf	-0.07838773
122	0xbe4ad1de	-0.1980662
123	0x3da04c20	0.0782702
124	0x3e6e0b99	0.23246612
125	0xbc14f733	-0.00909214
126	0xbce425a1	-0.027849974
127	0x3e334ae1	0.17509033
128	0x38e86914	0.000110821944
129	0xbee77702	-0.45207983
130	0x3eb26dcf	0.34849402
131	0x3d4d85e2	0.05017651
132	0x3e3cfd20	0.18455935
133	0x3ebf1609	0.373215
134	0x3d8bc022	0.06823756
135	0xbb8efaae	-0.0043633794
136	0x3e2ec546	0.17067441
137	0x3ed57911	0.4169393
138	0x3e6dfafb	0.23240273
139	0xbebb38c5	-0.3656675
140	0xbd29391c	-0.04131423
141	0x3dc6558f	0.09684288
142	0x3e446329	0.19178452
143	0x3e21fbcf	0.15818714
144	0xbe479928	-0.19492018
145	0xbea02fb4	-0.31286395
146	0xbd8d2ab6	-0.06892912
147	0xbe3802d7	-0.17969833
148	0x3f0525ce	0.5201081
149	0xbbca8773	-0.0061806976
150	0xbdf6de63	-0.12054136
151	0x3ddd7b80	0.108145714
152	0x3d895bb8	0.06706947
153	0x3e235d02	0.15953448
154	0xbdcce343	-0.10004284
155	0xb8c7d974	-9.529563e-05
156	0x3ec66c87	0.38754675
157	0x3e48a6c3	0.19594865
158	0x3ee4df4b	0.4470161
159	0x3c8843cf	0.016633896
160	0x3eb7aac3	0.35872468
161	0xbd33c449	-0.043888364
162	0x3ec8f5d3	0.3925005
163	0xbea85086	-0.32873935
164	0xbf1e5f71	-0.6186438
165	0x3ea5df94	0.3239714
166	0x3dc91ba3	0.098197244
167	0xbe211f3e	-0.15734574
168	0x3f4caa6a	0.7994753
169	0xbe8ec1d7	-0.27882263
170	0x3ed7b592	0.42130715
171	0x3dca27b3	0.09870853
172	0x3cc485f2	0.023989651
173	0x3cbd7a5c	0.023129635
174	0x3fa86e62	1.3158686
175	0xbd76c19b	-0.06024323
176	0xbed8d3df	-0.42349145
177	0xbd1d5553	-0.03841145
178	0x3b7727e0	0.0037712976
179	0xbeb5dc75	-0.35519758
180	0x3e3d7ab9	0.18503846
181	0xbe6f7add	-0.23386712
182	0x3d511509	0.05104545
183	0xbe8fb88a	-0.2807048
184	0x3e4a30bd	0.19745155
185	0x3e843cbc	0.25827587
186	0x3dae820c	0.08520898
187	0x3f28f574	0.6599953
188	0xbe353cc6	-0.17698964
189	0xbe97131f	-0.29506776
190	0x3ebfa2dd	0.37428942
191	0x3bfd2360	0.0077251643
192	0xbeada204	-0.3391267
193	0x3dd0b7a0	0.10191274
194	0xbcd8e801	-0.026477816
195	0xbbe97b56	-0.0071252985
196	0x3f0b31ad	0.54372674
197	0xbf1218e2	-0.5706922
198	0xbeba2386	-0.36355227
199	0xbe9a0dad	-0.3008856
200	0xbde7c4d2	-0.11316837
201	0xbe03238a	-0.12806526
202	0xbe603726	-0.21896037
203	0x3d0bdb39	0.034144614
204	0xbdd6ed9d	-0.1049454
205	0x3eba0d71	0.3633838
206	0x3e72869f	0.23684166
207	0xbf321a97	-0.6957182
208	0x3e0e7fc0	0.1391592
209	0xbf6ff0b3	-0.9372665
210	0xbe1989be	-0.1499395
211	0xbf04f008	-0.5192876
212	0xbf0c3fbd	-0.54784757
213	0x3ed38bb1	0.41317514
214	0x3eabbd6c	0.33542955
215	0xbf32d5ee	-0.6985768
216	0x3f162786	0.5865406
217	0x3ebccd7c	0.36875522
218	0x3d884b21	0.06654955
219	0x3f7035c9	0.9383207
220	0xbf9e357e	-1.2360075
221	0x3ea22203	0.31666574
222	0xbd80c88f	-0.062882535
223	0xbed1a10d	-0.40943184
224	0x3efefb71	0.4980121
225	0x3ed49d62	0.41526324
226	0x3e600a29	0.21878876
227	0x3e3fab9d	0.18717809
228	0xbd23cbe5	-0.03998937
229	0x3f1741ee	0.59084976
230	0xbf35de8e	-0.71042717
231	0xbf1a361b	-0.6023881
232	0x3f8f20a6	1.1181839
233	0xbe416d44	-0.18889338
234	0x3d8d3d73	0.06896486
235	0x3ea2400e	0.31689495
236	0xbea55945	-0.3229467
237	0x3e905b26	0.2819454
238	0x3e73c57e	0.23805806
239	0x3f708234	0.93948674
240	0x3e3d6a2e	0.18497536
241	0xbe4ac00d	-0.19799824
242	0x3dd46a4e	0.103718385
243	0xbbd42d04	-0.006475093
244	0x3f60210c	0.87550426
245	0xbe5a127e	-0.21296117
246	0x3e0113c5	0.12605198
247	0xbf2681ea	-0.65041983
248	0x3ead3a7a	0.33833677
249	0x3f0de7eb	0.55432004
250	0x3f0f5fa4	0.5600531
251	0x3e6c269a	0.230616
252	0xbf2a79db	-0.66592187
253	0xbeaaf4a7	-0.3338978
254	0xbd89ec3d	-0.06734512
255	0x3ecac12c	0.39600503
